…
 LogicalDevice(name='/device:IPU:15', device_type='IPU')]
Model: "model"
__________________________________________________________________________________________________
Layer (type)                    Output Shape         Param #     Connected to                     
==================================================================================================
input_1 (InputLayer)            [(None, 200, 1)]     0                                            
__________________________________________________________________________________________________
flatten (Flatten)               (None, 200)          0           input_1[0][0]                    
__________________________________________________________________________________________________
flatten_1 (Flatten)             (None, 200)          0           input_1[0][0]                    
__________________________________________________________________________________________________
flatten_2 (Flatten)             (None, 200)          0           input_1[0][0]                    
__________________________________________________________________________________________________
dense (Dense)                   (None, 16)           3216        flatten[0][0]                    
__________________________________________________________________________________________________
dense_3 (Dense)                 (None, 16)           3216        flatten_1[0][0]                  
__________________________________________________________________________________________________
dense_6 (Dense)                 (None, 16)           3216        flatten_2[0][0]                  
__________________________________________________________________________________________________
activation (Activation)         (None, 16)           0           dense[0][0]                      
__________________________________________________________________________________________________
activation_2 (Activation)       (None, 16)           0           dense_3[0][0]                    
__________________________________________________________________________________________________
activation_4 (Activation)       (None, 16)           0           dense_6[0][0]                    
__________________________________________________________________________________________________
dense_1 (Dense)                 (None, 8)            136         activation[0][0]                 
__________________________________________________________________________________________________
dense_4 (Dense)                 (None, 8)            136         activation_2[0][0]               
__________________________________________________________________________________________________
dense_7 (Dense)                 (None, 8)            136         activation_4[0][0]               
__________________________________________________________________________________________________
activation_1 (Activation)       (None, 8)            0           dense_1[0][0]                    
__________________________________________________________________________________________________
activation_3 (Activation)       (None, 8)            0           dense_4[0][0]                    
__________________________________________________________________________________________________
activation_5 (Activation)       (None, 8)            0           dense_7[0][0]                    
__________________________________________________________________________________________________
dense_2 (Dense)                 (None, 1)            9           activation_1[0][0]               
__________________________________________________________________________________________________
dense_5 (Dense)                 (None, 1)            9           activation_3[0][0]               
__________________________________________________________________________________________________
dense_8 (Dense)                 (None, 1)            9           activation_5[0][0]               
__________________________________________________________________________________________________
concatenate (Concatenate)       (None, 3)            0           dense_2[0][0]                    
                                                                 dense_5[0][0]                    
                                                                 dense_8[0][0]                    
__________________________________________________________________________________________________
flatten_3 (Flatten)             (None, 3)            0           concatenate[0][0]                
__________________________________________________________________________________________________
relative_position (RelativePosi (None, 3)            9           flatten_3[0][0]                  
__________________________________________________________________________________________________
batch_normalization (BatchNorma (None, 3)            12          relative_position[0][0]          
__________________________________________________________________________________________________
dense_9 (Dense)                 (None, 32)           128         batch_normalization[0][0]        
__________________________________________________________________________________________________
batch_normalization_1 (BatchNor (None, 32)           128         dense_9[0][0]                    
__________________________________________________________________________________________________
activation_6 (Activation)       (None, 32)           0           batch_normalization_1[0][0]      
__________________________________________________________________________________________________
dense_10 (Dense)                (None, 16)           528         activation_6[0][0]               
__________________________________________________________________________________________________
batch_normalization_2 (BatchNor (None, 16)           64          dense_10[0][0]                   
__________________________________________________________________________________________________
activation_7 (Activation)       (None, 16)           0           batch_normalization_2[0][0]      
__________________________________________________________________________________________________
dense_11 (Dense)                (None, 2)            34          activation_7[0][0]               
__________________________________________________________________________________________________
activation_8 (Activation)       (None, 2)            0           dense_11[0][0]                   
==================================================================================================
Total params: 10,986
Trainable params: 10,875
Non-trainable params: 111
__________________________________________________________________________________________________
Traceback (most recent call last):
  File "test_keras.py", line 375, in <module>
    history = model.fit(x_train, y_train, batch_size=200, epochs=1,
…
